2021-10-07 05:25:51,246 ----------------------------------------------------------------------------------------------------
2021-10-07 05:25:51,246 Model: "SequenceTagger(
  (embeddings): StackedEmbeddings(
    (list_embedding_0): CharacterEmbeddings(
      (char_embedding): Embedding(275, 25)
      (char_rnn): LSTM(25, 25, bidirectional=True)
    )
    (list_embedding_1): WordEmbeddings('glove')
    (list_embedding_2): FlairEmbeddings(
      (lm): LanguageModel(
        (drop): Dropout(p=0.05, inplace=False)
        (encoder): Embedding(300, 100)
        (rnn): LSTM(100, 2048)
        (decoder): Linear(in_features=2048, out_features=300, bias=True)
      )
    )
    (list_embedding_3): FlairEmbeddings(
      (lm): LanguageModel(
        (drop): Dropout(p=0.05, inplace=False)
        (encoder): Embedding(300, 100)
        (rnn): LSTM(100, 2048)
        (decoder): Linear(in_features=2048, out_features=300, bias=True)
      )
    )
    (list_embedding_4): OneHotEmbeddings(
      min_freq=3
      (embedding_layer): Embedding(18, 18)
    )
    (list_embedding_5): OneHotEmbeddings(
      min_freq=3
      (embedding_layer): Embedding(24, 22)
    )
    (list_embedding_6): OneHotEmbeddings(
      min_freq=3
      (embedding_layer): Embedding(18, 18)
    )
    (list_embedding_7): OneHotEmbeddings(
      min_freq=3
      (embedding_layer): Embedding(24, 22)
    )
    (list_embedding_8): OneHotEmbeddings(
      min_freq=3
      (embedding_layer): Embedding(18, 18)
    )
    (list_embedding_9): OneHotEmbeddings(
      min_freq=3
      (embedding_layer): Embedding(24, 22)
    )
    (list_embedding_10): OneHotEmbeddings(
      min_freq=3
      (embedding_layer): Embedding(18, 18)
    )
    (list_embedding_11): OneHotEmbeddings(
      min_freq=3
      (embedding_layer): Embedding(24, 22)
    )
  )
  (dropout): Dropout(p=0.2, inplace=False)
  (word_dropout): WordDropout(p=0.05)
  (locked_dropout): LockedDropout(p=0.3)
  (embedding2nn): Linear(in_features=4406, out_features=4406, bias=True)
  (rnn): LSTM(4406, 500, batch_first=True, bidirectional=True)
  (linear): Linear(in_features=1000, out_features=959, bias=True)
  (beta): 1.0
  (weights): None
  (weight_tensor) None
)"
2021-10-07 05:25:51,247 ----------------------------------------------------------------------------------------------------
2021-10-07 05:25:51,247 Corpus: "Corpus: 5017 train + 2002 dev + 2077 test sentences"
2021-10-07 05:25:51,247 ----------------------------------------------------------------------------------------------------
…
